FINAL R3/frozen_lake_dql.pt (torch, 3472 bytes, 4 tensors)

fc1.weight f4 [16, 16]
0.1384151 0.060087413 -0.20937097 -0.025709033 -0.13214934 0.20763108 0.1966458 -0.12711006
0.14720932 0.17470172 0.017145485 0.18094581 0.09721255 -0.14587325 0.03620404 0.10711089
0.14569986 0.17733689 -0.19487125 -0.18641205 0.18861258 0.108029276 -0.10838256 -0.03622371
0.3019641 -0.20264784 -0.17172597 0.24341652 0.086610794 -0.17550005 -0.10002079 -0.05534658
0.14540564 0.10388168 0.12984943 -0.17214492 -0.15312228 0.1093438 0.22405899 -0.18148685
-0.06910064 -0.17087126 0.41596314 -0.01041925 -0.024947703 -0.12784311 0.16747287 0.23282048
0.18396413 0.17407635 -0.20953616 -0.14880419 0.20011881 0.17400685 0.23544665 -0.018949658
0.2233445 -0.16109478 -0.17871323 0.24206859 -0.19118768 -0.04072541 0.15538767 0.0041018724
0.1832536 -0.11886677 0.2823948 0.19617403 0.10184896 0.10053983 -0.22482139 -0.059592992
0.11555058 0.07046619 -0.0021182299 -0.039608806 -0.06475848 0.30853966 -0.20992902 0.24787238
0.021046463 0.12352317 -0.00850732 -0.17339155 -0.35127494 0.20691004 -0.2558871 -0.012688667
0.167771 0.34031466 -0.15394337 0.017330766 -0.24682376 0.523315 0.39253896 -0.011364877
0.15433186 0.1609403 0.09971087 -0.19530013 -0.1975922 0.032267183 0.012882189 0.093907
0.51008576 -0.10719823 -0.2374135 -0.20134634 -0.006602943 -0.032607783 -0.09795584 0.08019456
0.084255576 -0.006501508 -0.12675993 -0.035233945 -0.13851269 0.11104265 -0.15095977 -0.13360316
-0.14857897 0.32867226 -0.14504272 -0.09143725 0.105531156 -0.1581263 0.18685672 0.033753216
0.08845329 -0.36759675 0.17575304 -0.35074934 0.12139283 -0.10269496 0.30408597 0.052215725
-0.2792691 -0.08199668 0.6198343 0.1783498 -0.09049797 -0.14014132 -0.2106105 0.10705757
-0.04333134 -2.9665745e-05 0.22043857 0.23292488 0.0892421 0.13745973 -0.051665284 0.1878022
0.009453521 -0.23550637 0.32174453 -0.080029815 -0.091564804 0.15932113 0.37996462 0.17213255
-0.08490121 0.09995234 0.0014689267 -0.16946968 -0.1818851 0.18600899 0.12893093 0.22573385
-0.038274646 -0.013188869 0.07606554 -0.11253086 -0.17158696 -0.1401442 -0.1297561 0.030680686
0.06364577 -0.06838436 0.01897943 -0.12798822 -0.013884069 0.08884075 -0.29058185 0.054029286
-0.23670237 0.4067859 0.054842398 0.06890041 -0.17952102 -0.16501029 0.33894 -0.04243064
0.26285875 -0.16390866 0.23025887 -0.12849686 0.18892834 -0.19488081 0.26220202 -0.11480677
-0.1908902 0.40582243 -0.2096248 0.080703974 -0.12980515 0.30980608 0.20157366 0.054464966
-0.12046307 -0.06452699 0.08358011 0.3105091 0.13531531 0.16489637 -0.26312473 0.1790883
-0.0025562395 0.39142016 0.17790252 0.15411112 -0.113818735 -0.1672048 -0.26791117 0.21622956
0.14456366 0.12803948 0.085532725 -0.11077954 0.11901585 -0.07177845 0.29342178 0.042605877
0.063729785 0.2867371 0.20133409 0.24158096 -0.16520676 0.4480296 0.530087 0.14941826
-0.01652513 -0.21826497 -0.17338154 -0.007026463 0.40653443 0.19828501 0.517166 -0.01369375
-0.007342761 0.092405036 -0.008223761 0.23768276 -0.08443999 0.043103736 -0.16842774 0.15712574
00000000: b0bc 0d3e 381e 763d 5865 56be c09b d2bc
00000010: 2852 07be 3e9d 543e 845d 493e 2429 02be
00000020: 0abe 163e 02e5 323e b074 8c3c dc49 393e
00000030: 6017 c73d cc5f 15be b04a 143d f45c db3d
00000040: 5832 153e cd97 353e 548c 47be cde2 3ebe
00000050: a823 413e 743e dd3d adf7 ddbd 505f 14bd
00000060: 0a9b 9a3e ea82 4fbe efd8 2fbe 2e42 793e
00000070: 0061 b13d 49b6 33be b3d7 ccbd 18b3 62bd
00000080: 37e5 143e ebbf d43d 40f7 043e c246 30be
00000090: 16cc 1cbe a4ef df3d b86f 653e b0d7 39be
000000a0: a384 8dbd e0f8 2ebe 1ff9 d43e 80b5 2abc
000000b0: 205f ccbc 4ee9 02be 027e 2b3e 7e68 6e3e
000000c0: 1861 3c3e 1241 323e a690 56be 2060 18be
000000d0: f2eb 4c3e da2e 323e ed18 713e 503c 9bbc
000000e0: 6cb4 643e 08f6 24be 9a00 37be d4e0 773e
000000f0: b4c6 43be b0cf 26bd f21d 1f3e 0069 863b
00000100: d5a6 3b3e 6c70 f3bd 0d96 903e d8e1 483e
00000110: 3096 d03d d4e7 cd3d 9437 66be c817 74bd
00000120: c8a5 ec3d 9450 903d 00d2 0abb d83c 22bd
00000130: 18a0 84bd e9f8 9d3e a2f7 56be 42d2 7d3e
00000140: a269 ac3c b7f9 fc3d 4962 0bbc 8e8d 31be
00000150: 4fda b3be 3ae0 533e a203 83be 20e4 4fbc
00000160: 29cc 2b3e b93d ae3e 55a3 1dbe 40f9 8d3c
00000170: 5ebf 7cbe f9f7 053f defa c83e c033 3abc
00000180: 2c09 1e3e 89cd 243e 3635 cc3d c2fc 47be
00000190: 9c55 4abe 982a 043d d10f 533c 5052 c03d
000001a0: fb94 023f bf8a dbbd 861c 73be bc2d 4ebe
000001b0: 805d d8bb bd8f 05bd 129d c8bd 0c3d a43d
000001c0: 308e ac3d 9a0a d5bb 5bcd 01be 7851 10bd
000001d0: 45d6 0dbe 546a e33d 3395 1abe 44cf 08be
000001e0: 1625 18be bb47 a83e 1486 14be 7443 bbbd
000001f0: b820 d83d dceb 21be 5e57 3f3e d040 0a3d
00000200: 0027 b53d a435 bcbe 9bf8 333e 6b95 b3be
00000210: ce9c f83d bc51 d2bd 28b1 9b3e 28e0 553d
00000220: 5cfc 8ebe e0ed a7bd 76ad 1e3f 54a1 363e
00000230: 0057 b9bd 3581 0fbe 47aa 57be 0041 db3d
00000240: 347c 31bd b4da f8b7 a6ba 613e dc83 6e3e
00000250: 90c4 b63d 3ec2 0c3e fa9e 53bd 384f 403e
00000260: f1e2 1a3c 9528 71be b3bb a43e ace6 a3bd
00000270: 5486 bbbd 1425 233e b98a c23e 8443 303e
00000280: b0e0 adbd d0b3 cc3d 0089 c03a 7689 2dbe
00000290: 1640 3abe 2479 3e3e 7806 043e c626 673e
000002a0: e0c5 1cbd 2016 58bc 40c8 9b3d 9476 e6bd
000002b0: 7eb4 2fbe f681 0fbe c8de 04be 1056 fb3c
000002c0: b758 823d 190d 8cbd c07a 9b3c 580f 03be
000002d0: 027a 63bc 24f2 b53d 25c7 94be d04d 5d3d
000002e0: 1b62 72be 3e46 d03e 6ca2 603d a81b 8d3d
000002f0: 5cd4 37be 75f8 28be 8b89 ad3e c0cb 2dbd
00000300: 6c95 863e acd7 27be fbc8 6b3e ae94 03be
00000310: 6e76 413e d68e 47be 583f 863e d01f ebbd
00000320: b878 43be f5c7 cf3e e2a7 56be 2048 a53d
00000330: a4eb 04be e79e 9e3e 5369 4e3e a816 5f3d
00000340: 58b5 f6bd ba26 84bd 0c2c ab3d 0cfb 9e3e
00000350: 1990 0a3e 98da 283e 49b8 86be ec62 373e
00000360: 9586 27bb 3968 c83e 142c 363e 4ecf 1d3e
00000370: cc19 e9bd bc37 2bbe a72b 89be 486b 5d3e
00000380: 7f08 143e c81c 033e c82b af3d 62e0 e2bd
00000390: 95be f33d 9400 93bd 613b 963e 8083 2e3d
000003a0: c384 823d 35cf 923e 862a 4e3e 0061 773e
000003b0: f62b 29be 2364 e53e c8b3 073f 1a01 193e
000003c0: b65f 87bc da80 5fbe ee8a 31be 3e3e e6bb
000003d0: 4825 d03e 3a0b 4b3e fe64 043f c05b 60bc
000003e0: 8b9b f0bb da3e bd3d f4bc 06bc 1c63 733e
000003f0: e0ee acbd 8b8d 303d 5278 2cbe 92e5 203e

fc1.bias f4 [16]
-0.20835939 0.17154591 0.067313105 -0.25113693 -0.12354017 0.40650934 0.093051195 0.1454942
0.36584616 0.40497702 -0.22557491 0.33943447 0.18848966 0.26318455 0.453065 0.006042703
00000000: 2a5c 55be bba9 2f3e 74db 893d 0595 80be
00000010: a102 fdbd fe21 d03e a091 be3d 6efc 143e
00000020: 3050 bb3e 2659 cf3e 1cfd 66be 5bca ad3e
00000030: 6f03 413e 20c0 863e 23f8 e73e de01 c63b

out.weight f4 [4, 16]
0.14480495 0.20574449 -0.12763827 -0.20192745 -0.22117867 0.028319295 0.20800643 0.07770346
0.015106359 0.5408968 -0.02764818 0.46770042 -0.117906585 0.2720299 0.01191251 -0.099921465
-0.036141902 -0.20049559 0.10761922 -0.0822087 0.12703037 0.12977946 -0.26999387 0.02032417
0.4470188 0.26993358 0.034294248 0.31457174 0.35593313 -0.061559822 0.24186727 0.2589111
-0.010576099 -0.03524901 -0.04093573 0.23799986 0.041309547 0.5484603 0.38786688 0.14685614
-0.3558064 0.10954606 -0.18796632 0.18155353 0.20346026 -0.053138033 0.24909298 -0.49192616
-0.0058982074 0.15615554 0.24964067 -0.18517551 0.3357396 -0.048238233 0.12677959 -0.32485405
0.015758779 0.5479914 0.11602941 0.032843824 -0.023170395 -0.31790084 0.2516912 0.013667802
00000000: c047 143e afae 523e 9bb3 02be 12c6 4ebe
00000010: a97c 62be defd e73c a3ff 543e fe22 9f3d
00000020: a980 773c 3678 0a3f 707e e2bc 6e76 ef3e
00000030: 0279 f1bd 8147 8b3e b02c 433c a0a3 ccbd
00000040: 8809 14bd b74e 4dbe 7767 dc3d 095d a8bd
00000050: 4014 023e e8e4 043e a33c 8abe e07e a63c
00000060: a6df e43e bc34 8a3e 2078 0c3d 8c0f a13e
00000070: de3c b63e 2726 7cbd 0eac 773e ff8f 843e
00000080: 6047 2dbc 4461 10bd 39ac 27bd 3cb6 733e
00000090: 3334 293d e567 0c3f 7d96 c63e 7561 163e
000000a0: 422c b6be af59 e03d 3e7a 40be 2be9 393e
000000b0: e357 503e 44a7 59bd 3b12 7f3e bfdd fbbe
000000c0: c045 c1bb 3de7 1f3e cea1 7f3e a69e 3dbe
000000d0: 10e6 ab3e 7495 45bd 82d2 013e 4553 a6be
000000e0: 8e18 813c 2a49 0c3f d4a0 ed3d 3f87 063d
000000f0: d7cf bdbc e6c3 a2be abdd 803e ebee 5f3c

out.bias f4 [4]
0.056660105 -0.08958705 0.04372752 0.17155875
00000000: 6d14 683d 6a79 b7bd a11b 333d 19ad 2f3e
